frontend/response/optimized_model.tflite (tflite, 544648 bytes, 6 tensors)

arith.constant f4 [1000]
-0.14458707 0.0 -0.004807106 -0.027421948 0.0 0.00022965432 0.026771205 -0.111819245
0.0 0.10135289 -0.045251608 -0.094471455 0.16970424 0.0056955935 -0.081182204 0.1710375
0.00045898714 -0.0030844365 0.0 0.0 0.037311755 -0.022523912 0.20644504 -0.05309687
0.01587154 -0.05451706 0.002916097 -0.007815574 0.037966076 0.0050338153 -0.0035576737 -0.073921
-0.056258135 0.18890488 -0.047843914 -0.13431288 -0.023037804 0.084205404 -0.018925201 -0.025366522
-0.005443438 -0.068346426 0.0 0.0 0.0 -0.056315392 -0.04591784 0.03106103
0.0 -0.01639336 -0.02790818 -0.12945831 0.10879258 0.12018095 -0.034132656 0.032960504
-0.0038684325 0.005610522 0.13919058 -0.008983476 0.0 -0.15374401 -0.13409165 -0.07851575
-0.012788666 0.014513934 0.0 -0.014267964 -0.06488385 0.0617773 0.0 0.0
-0.12108167 -0.10439242 0.0 -0.059890844 -0.03798213 -0.05271028 0.098774165 0.3486026
0.041706726 0.19142619 -0.15839662 -0.045263883 0.0 0.03619079 0.037472457 0.017096253
-0.025251623 0.01047735 -0.18138331 0.15362442 -0.06526424 0.0 -0.0028117492 -0.1913562
-0.082464024 -0.05070738 0.09548867 -0.09895695 0.053948153 0.060389493 -0.015533126 0.0
0.107570976 -0.08640272 0.09759304 0.10031149 -0.017134827 -0.057473913 -0.0075695226 -0.026644796
-0.059415933 -0.19603767 -0.12304138 -0.02219271 -0.005273248 -0.081859 -0.0518594 0.0
-0.057304155 -0.13747819 -0.006026257 0.10593368 -0.0897848 -0.05668682 0.052215904 0.049254064
0.097482845 0.0122220125 -0.049052503 -0.14189264 -0.013026707 -0.112025104 0.059221826 0.012958798
0.02242187 -0.101499766 -0.10796246 0.0 -0.012805916 -0.089849144 -0.03461993 -0.042381506
0.00218128 0.0 0.0 -0.09128128 0.045520656 -0.18574654 -0.10335314 -0.039584037
0.0 -0.124209434 -0.006748928 0.021682855 0.18566303 -0.25222227 0.0 0.112353995
0.07455744 -0.10645035 0.014778126 -0.07461367 -0.074360535 0.010520808 -0.00776385 0.0028575782
0.002312329 0.1358949 0.0 0.0 -0.07573537 0.0011746881 0.0 -0.07232056
0.02529524 0.02773308 0.05457118 -0.011213166 -0.010513767 -0.11839385 -0.17512298 0.04153301
0.050106764 -0.011966433 -0.08132963 0.07112969 0.0 0.0 -0.017780673 -0.015205334
0.021100445 0.023967734 -0.13177487 0.0 0.09463743 -0.025279608 0.002520573 0.0030559676
0.0 -0.032443814 -0.026890183 0.0 0.034280393 -0.003238494 -0.13871482 -0.0798831
-0.0070125135 -0.12195489 -0.07226399 -0.06385729 -0.07418431 0.07068561 -0.115206845 0.077156425
-0.24028775 0.004649814 0.042687356 -0.011119312 0.0 -0.101637706 0.0 -0.04806298
-0.13376692 -0.19589064 -0.04477392 -0.08612083 0.21412285 0.09897488 0.054399487 0.0
0.14796907 0.15594397 0.0 0.047711097 0.0 -0.0055381525 -0.14316623 0.0
0.0164566 0.0 0.0271533 0.0 -0.11283432 -0.14153358 -0.10445914 -0.09060673
-0.07482332 0.12547617 -0.17316133 0.07175693 -0.081718214 -0.09036631 -0.033285033 -0.055892438
00000000: a20e 14be 0000 0000 ee84 9dbb fea3 e0bc
00000010: 0000 0000 5dcf 7039 494f db3c 7d01 e5bd
00000020: 0000 0000 1b92 cf3d c059 39bd 407a c1bd
00000030: f3c6 2d3e 1aa2 ba3b db42 a6bd 7424 2f3e
00000040: 36a4 f039 4224 4abb 0000 0000 0000 0000
00000050: 36d4 183d 1184 b8bc 5466 533e 1b7c 59bd
00000060: 0805 823c 484d 5fbd fd1b 3f3b e50c 00bc
00000070: 5182 1b3d b4f2 a43b dc27 69bb e563 97bd
00000080: ee6e 66bd 4870 413e fbf7 43bd 5189 09be
00000090: c7b9 bcbc e273 ac3d 0609 9bbc 74cd cfbc
000000a0: de5e b2bb 36f9 8bbd 0000 0000 0000 0000
000000b0: 0000 0000 f8aa 66bd 5814 3cbd b473 fe3c
000000c0: 0000 0000 5e4b 86bc b29f e4bc b890 04be
000000d0: a5ce de3d 6e21 f63d afce 0bbd 9801 073d
000000e0: 8785 7dbb 78d8 b73b fa87 0e3e 6e2f 13bc
000000f0: 0000 0000 126f 1dbe 524f 09be decc a0bd
00000100: 8e87 51bc dacb 6d3c 0000 0000 2ec4 69bc
00000110: d3e1 84bd 320a 7d3d 0000 0000 0000 0000
00000120: abf9 f7bd b1cb d5bd 0000 0000 1a50 75bd
00000130: 2693 1bbd bce6 57bd 1c4a ca3d 0a7c b23e
00000140: acd4 2a3d 3a05 443e b932 22be 9f66 39bd
00000150: 0000 0000 cb3c 143d b87c 193d 710d 8c3c
00000160: 7edc cebc 31a9 2b3c 8cbc 39be b84f 1d3e
00000170: 42a9 85bd 0000 0000 5345 38bb e1f2 43be
00000180: e6e2 a8bd 8bb2 4fbd 908f c33d f1a9 cabd
00000190: bdf8 5c3d f95a 773d a77e 7ebc 0000 0000
000001a0: 2c4e dc3d e9f3 b0bd dcde c73d 1c70 cd3d
000001b0: 565e 8cbc c469 6bbd c209 f8bb 3046 dabc
000001c0: 1f5e 73bd 19be 48be 1efd fbbd 7ccd b5bc
000001d0: 36cb acbb b1a5 a7bd 866a 54bd 0000 0000
000001e0: c3b7 6abd 15c7 0cbe e877 c5bb c2f3 d83d
000001f0: 18e1 b7bd 7030 68bd 58e0 553d a1be 493d
00000200: 16a5 c73d d63e 483c 47eb 48bd 4e4c 11be
00000210: f86d 55bc 6b6d e5bd 9692 723d 2351 543c
00000220: 12ae b73c 1cdf cfbd 6c1b ddbd 0000 0000
00000230: e8cf 51bc d402 b8bd a1cd 0dbd 3b98 2dbd
00000240: cef3 0e3b 0000 0000 0000 0000 aef1 babd
00000250: de73 3a3d 5734 3ebe d0aa d3bd df22 22bd
00000260: 0000 0000 8461 febd 1d26 ddbb 3ea0 b13c
00000270: 731e 3e3e 4723 81be 0000 0000 da19 e63d
00000280: 92b1 983d a402 dabd f41f 723c 0dcf 98bd
00000290: 564a 98bd 785f 2c3c e567 febb 3546 3b3b
000002a0: 718a 173b 0828 0b3e 0000 0000 0000 0000
000002b0: 251b 9bbd fef7 993a 0000 0000 cd1c 94bd
000002c0: f737 cf3c 7c30 e33c 0886 5f3d 6db7 37bc
000002d0: ef41 2cbc 7a78 f2bd 7053 33be 841e 2a3d
000002e0: c03c 4d3d dc0e 44bc 2690 a6bd 71ac 913d
000002f0: 0000 0000 0000 0000 c6a8 91bc cb1f 79bc
00000300: d7da ac3c fb57 c43c feef 06be 0000 0000
00000310: 45d1 c13d 2e17 cfbc 3330 253b a146 483b
00000320: 0000 0000 cee3 04bd cd48 dcbc 0000 0000
00000330: 9969 0c3d ea3c 54bb 420b 0ebe c099 a3bd
00000340: 3ac9 e5bb 7cc3 f9bd 25ff 93bd 9cc7 82bd
00000350: f2ed 97bd 9ec3 903d 91f1 ebbd 3004 9e3d
00000360: fe0d 76be 785d 983b f0d8 2e3d c62d 36bc
00000370: 0000 0000 6e27 d0bd 0000 0000 b0dd 44bd
00000380: 32fa 08be 8e97 48be dc64 37bd 1e60 b0bd
00000390: 0543 5b3e 58b3 ca3d ffd1 5e3d 0000 0000
000003a0: 3485 173e c7af 1f3e 0000 0000 b66c 433d
000003b0: 0000 0000 6479 b5bb 2b9a 12be 0000 0000
000003c0: fecf 863c 0000 0000 9970 de3c 0000 0000
000003d0: ae15 e7bd 2eee 10be acee d5bd 0590 b9bd
000003e0: f83c 99bd d37c 003e 3451 31be 4cf5 923d
000003f0: e15b a7bd f911 b9bd e355 08bd 78ef 64bd

arith.constant1 f4 [500]
-0.09995701 0.02198021 0.14892025 -0.03158182 -0.12321667 -0.035580993 0.05954035 -0.0625832
0.11413351 0.060045797 -0.050092146 -0.057840064 -0.17136241 -0.06976236 -0.03940477 -0.062031608
-0.0052281283 0.00846564 -0.027116735 -0.0077712904 -0.039920554 -0.06822667 0.13013895 0.0023039798
0.027984532 -0.10668566 -0.09276688 -0.013064198 -0.03830249 0.1306473 -0.041146226 -0.051390693
0.032020018 -0.12265528 0.014019009 0.15714385 0.04470169 0.077121735 0.14064352 -0.15194486
-0.102089904 -0.08391467 0.0891962 0.0120739825 -0.016815836 -0.0019848994 0.011889528 0.071730405
-0.06695639 -0.06899612 -0.077172145 -0.010386873 0.045360338 -0.104484275 -0.023336867 -0.020739758
-0.12710018 0.063948676 -0.040759534 -0.12327371 0.025001796 -0.04502315 0.030607391 0.004886718
0.027936693 -0.15417731 0.030459654 -0.0045245746 0.015764963 0.03168019 -0.09929331 -0.0753766
0.14249791 0.025868807 0.040826425 0.034628607 0.03578505 0.0016659533 0.116806254 0.03531927
0.07269098 0.123956315 0.07737989 -0.031588327 0.10129728 0.06917508 -0.0752076 0.004581502
0.051829737 0.03155426 0.055800807 -0.06280273 0.03488727 -0.095870666 -0.10080881 0.024312468
0.055084944 0.084552005 0.046042304 0.071987584 -0.09014651 -0.028828632 -0.108856305 0.03462616
0.13761428 -0.1513103 -0.06162375 0.07756563 0.029516065 0.016397558 0.031196754 0.053365268
0.08643595 -0.019419018 -0.165503 0.02294046 -0.0047597867 0.12598991 0.0023052073 0.06284577
-0.03460416 0.05409695 -0.05120086 -0.10814158 0.01344442 -0.11470778 0.033113938 0.06469265
-0.07731415 0.070198 -0.05966389 0.020824797 0.03979429 -0.08884216 0.012340158 0.09182002
0.1585583 0.1849649 -0.0027695 0.019365339 0.01599076 0.05095997 -0.0035772498 -0.015560949
0.072670385 -0.04580381 0.010316174 -0.10389888 0.053654972 -0.009582111 0.028532444 -0.06910623
-0.06527826 -0.038175356 0.030192612 -0.02158376 0.08873341 0.095685735 0.071825005 -0.007900119
-0.04157251 0.07656253 -0.0011561174 -0.06703575 -0.13100988 -0.020992437 0.006575535 -0.111313805
-0.0541423 -0.041114643 0.08402026 0.042851094 0.030528113 0.111219205 0.033435095 -0.086265735
-0.12044971 -0.03125155 0.0053946646 0.03469593 -0.046669353 -0.107742906 0.10637199 -0.03586888
-0.04362764 -0.114457674 -0.07723876 -0.16932118 -0.070969015 -0.072592266 0.043553643 -0.014962077
0.027463842 -0.16953862 -0.043227408 -0.049144253 0.02801456 0.10687637 -0.14675696 -0.046013124
-0.066897 0.05997289 -0.07310165 -0.05367159 -0.06986546 0.020779917 0.052632995 -0.11783165
-0.034495898 0.0331139 -0.0008784231 0.037980154 0.047422934 -0.068877436 -0.07597591 0.009523531
0.040841978 -0.048950095 0.023324197 -0.049378652 0.11309616 -0.03660396 -0.10740625 -0.088344164
-0.04844213 0.031809393 -0.09975549 -0.022987016 0.036072586 -0.16194353 -0.087839946 0.07492747
-0.031066315 -0.00016571663 -0.07017272 0.1513448 -0.10760364 -0.2273709 0.036696065 -0.07260523
-0.042397663 0.0013430349 -0.04088068 0.04054029 -0.036339287 -0.054229826 -0.03589657 -0.07339618
-0.04978434 0.063023634 0.02376085 0.07878077 -0.043009095 -0.009126705 -0.09938047 -0.11362356
00000000: 43b6 ccbd d70f b43c 8d7e 183e f05b 01bd
00000010: 0559 fcbd 60bd 11bd 95e0 733d 9f2b 80bd
00000020: d4be e93d 95f2 753d 6c2d 4dbd b4e9 6cbd
00000030: a179 2fbe 91df 8ebd e566 21bd db14 7ebd
00000040: b850 abbb 78b3 0a3c ea23 debc 4fa6 febb
00000050: bc83 23bd 6dba 8bbd 2543 053e 5efe 163b
00000060: d13f e53c 037e dabd 90fc bdbd 380b 56bc
00000070: 12e3 1cbd 68c8 053e f288 28bd 0c7f 52bd
00000080: 6c27 033d b132 fbbd fcaf 653c 51ea 203e
00000090: 1f19 373d 00f2 9d3d db04 103e 6f97 1bbe
000000a0: 8314 d1bd 74db abbd 7fac b63d f4d1 453c
000000b0: 5dc1 89bc 1615 02bb 4bcc 423c 64e7 923d
000000c0: 6f20 89bd d64d 8dbd 6e0c 9ebd b42d 2abc
000000d0: c3cb 393d dafb d5bd f52c bfbc 6de6 a9bc
000000e0: 8d26 02be 86f7 823d 78f3 26bd ed76 fcbd
000000f0: 91d0 cc3c 326a 38bd 5abc fa3c c320 a03b
00000100: 7edb e43c a8e0 1dbe 8686 f93c e242 94bb
00000110: 8625 813c 16c3 013d 4a5a cbbd 0c5f 9abd
00000120: f9ea 113e d2ea d33c 9c39 273d bad6 0d3d
00000130: 5893 123d 1e5c da3a 1e38 ef3d f0aa 103d
00000140: 02df 943d cfdc fd3d 5979 9e3d c362 01bd
00000150: f374 cf3d aaab 8d3d 7106 9abd 6d20 963b
00000160: 6b4b 543d 0a3f 013d 638f 643d b89e 80bd
00000170: f4e5 0e3d d757 c4bd d974 cebd f12a c73c
00000180: c0a0 613d 9a29 ad3d db96 3c3d 3a6e 933d
00000190: bc9e b8bd 062a ecbc 0ef0 debd 29d4 0d3d
000001a0: c2ea 0c3e 16f1 1abe 2f69 7cbd bbda 9e3d
000001b0: adcb f13c 2c54 863c 5690 ff3c 8a95 5a3d
000001c0: 5505 b13d a214 9fbc 9e79 29be a2ed bb3c
000001d0: fcf7 9bbb 8003 013e f612 173b 48b5 803d
000001e0: 17bd 0dbd c394 5d3d feb7 51bd 5579 ddbd
000001f0: fc45 5c3c eaeb eabd 7ba2 073d 957d 843d
00000200: e256 9ebd f8c3 8f3d 2062 74bd c498 aa3c
00000210: 56ff 223d e1f2 b5bd 602e 4a3c 220c bc3d
00000220: 1b5d 223e 7067 3d3e 8080 35bb 0fa4 9e3c
00000230: 0eff 823c 67bb 503d 4b70 6abb 5af3 7ebc
00000240: 36d4 943d c79c 3bbd 2b05 293c f0c8 d4bd
00000250: 51c5 5b3d 49fe 1cbc dfbc e93c 9187 8dbd
00000260: 9cb0 85bd c35d 1cbd 7f56 f73c 6dd0 b0bc
00000270: ddb9 b53d e2f6 c33d fd18 933d 806f 01bc
00000280: f047 2abd d1cc 9c3d dd88 97ba 0a4a 89bd
00000290: 7427 06be 55f8 abbc 9677 d73b 7ef8 e3bd
000002a0: 51c4 5dbd d467 28bd d012 ac3d a184 2f3d
000002b0: 1816 fa3c e5c6 e33d 3df3 083d 17ac b0bd
000002c0: 56ae f6bd a001 00bd bac5 b03b 521d 0e3d
000002d0: 5d28 3fbd 50a8 dcbd 8fd9 d93d 3feb 12bd
000002e0: e5b2 32bd c968 eabd 5b2f 9ebd 8862 2dbe
000002f0: 3458 91bd 41ab 94bd 4e65 323d 8023 75bc
00000300: dafb e03c 889b 2dbe 390f 31bd 7c4b 49bd
00000310: ca7e e53c 00e2 da3d 7547 16be 4278 3cbd
00000320: 4b01 89bd 22a6 753d 51b6 95bd bed6 5bbd
00000330: 9f15 8fbd a53a aa3c b295 573d b851 f1bd
00000340: 924b 0dbd 71a2 073d fa45 66ba 1491 1b3d
00000350: 8d3e 423d 9d0f 8dbd 4299 9bbd 9608 1c3c
00000360: eb49 273d e57f 48bd 6312 bf3c 4541 4abd
00000370: f69e e73d 09ee 15bd cff7 dbbd c9ed b4bd
00000380: 416b 46bd 914a 023d 9b4c ccbd 444f bcbc
00000390: d9c0 133d 86d4 25be 6ee5 b3bd 9373 993d
000003a0: c97e febc 38c4 2db9 b7b6 8fbd 22fa 1a3e
000003b0: 4c5f dcbd ebd3 68be 9d4e 163d 0db2 94bd
000003c0: 2ca9 2dbd c608 b03a 8072 27bd 930d 263d
000003d0: 81d8 14bd 1820 5ebd 4808 13bd bd50 96bd
000003e0: aaea 4bbd 8912 813d 1da6 c23c d057 a13d
000003f0: 4e2a 30bd 2d88 15bc fd87 cbbd 78b3 e8bd

arith.constant2 f4 [22]
0.0046967138 -0.0073519093 6.573903e-05 -0.008309829 -0.013525054 -0.0041864454 0.006060106 0.0011841579
0.019128572 -0.00090948684 -0.00012155379 0.0025853224 -0.017710917 0.0064094127 -0.002899442 -0.006907965
-0.013493795 0.008784896 -0.014370004 -0.0023997612 -0.0027524673 0.0027368362
00000000: e4e6 993b 49e8 f0bb 5fdd 8938 f325 08bc
00000010: 3098 5dbc 732e 89bb db93 c63b bf35 9b3a
00000020: 86b3 9c3c a16a 6eba b2ea feb8 836e 293b
00000030: 7c16 91bc 0d06 d23b 9104 3ebb 365c e2bb
00000040: 1415 5dbc 86ee 0f3c 2a70 6bbc 5045 1dbb
00000050: bd62 34bb 7e5c 333b

tfl.pseudo_qconst i1 [22, 500]
-4 63 -22 32 51 19 -12 31
-28 -3 35 53 15 -67 24 37
70 -7 -25 46 -24 -35 49 23
-43 6 64 0 -32 57 13 -21
20 -21 -20 -29 10 -27 -66 36
-57 -32 8 -10 7 44 40 -13
55 45 -41 34 -31 -5 60 44
-79 -16 46 -44 16 65 41 63
-6 -2 30 1 23 -18 47 -56
-28 -22 28 2 22 37 -57 27
-26 2 -58 46 6 47 44 43
-5 58 28 -5 -36 -15 1 -60
19 -25 10 65 -44 24 -16 -75
-7 -64 13 -8 58 -46 -34 -29
52 -1 40 -50 45 54 77 39
-49 26 14 47 35 -28 54 51
15 -34 -28 16 -42 -37 -35 40
21 -45 0 18 -67 38 -65 -52
-31 48 64 5 -32 -62 43 9
-8 22 -17 -31 40 34 2 -35
72 41 -26 17 -8 14 59 7
1 8 -46 -4 78 -63 0 -29
-5 -36 17 39 -12 -34 22 21
13 16 16 -15 -2 7 32 39
-54 -22 -49 -27 -35 -33 -27 -37
-14 80 -16 24 43 52 63 -32
17 28 5 39 -6 -13 -48 19
-36 4 -54 -25 -35 17 38 32
-53 -1 -35 -35 17 -12 -25 -14
-42 -15 47 -21 -52 44 -44 47
11 11 12 -19 24 -9 2 42
-15 -6 -35 5 -1 41 -3 -34
00000000: fc3f ea20 3313 f41f e4fd 2335 0fbd 1825
00000010: 46f9 e72e e8dd 3117 d506 4000 e039 0deb
00000020: 14eb ece3 0ae5 be24 c7e0 08f6 072c 28f3
00000030: 372d d722 e1fb 3c2c b1f0 2ed4 1041 293f
00000040: fafe 1e01 17ee 2fc8 e4ea 1c02 1625 c71b
00000050: e602 c62e 062f 2c2b fb3a 1cfb dcf1 01c4
00000060: 13e7 0a41 d418 f0b5 f9c0 0df8 3ad2 dee3
00000070: 34ff 28ce 2d36 4d27 cf1a 0e2f 23e4 3633
00000080: 0fde e410 d6db dd28 15d3 0012 bd26 bfcc
00000090: e130 4005 e0c2 2b09 f816 efe1 2822 02dd
000000a0: 4829 e611 f80e 3b07 0108 d2fc 4ec1 00e3
000000b0: fbdc 1127 f4de 1615 0d10 10f1 fe07 2027
000000c0: caea cfe5 dddf e5db f250 f018 2b34 3fe0
000000d0: 111c 0527 faf3 d013 dc04 cae7 dd11 2620
000000e0: cbff dddd 11f4 e7f2 d6f1 2feb cc2c d42f
000000f0: 0b0b 0ced 18f7 022a f1fa dd05 ff29 fdde

tfl.pseudo_qconst1 i1 [500, 1000]
46 0 10 46 22 -43 -26 -10
-28 25 17 -5 8 -36 -5 32
29 20 4 10 17 39 -62 20
44 -5 -25 -11 -5 -4 -8 -11
-11 -16 -33 0 11 -6 -15 3
-9 21 15 12 20 0 18 -14
0 20 -4 -46 41 -32 12 -10
19 -26 22 27 2 35 10 -3
1 -28 13 64 -9 -56 -2 25
13 -42 0 13 1 32 5 -41
-46 -36 -17 -22 -23 2 46 -41
-21 6 -18 -23 -6 18 -6 -28
-3 9 -17 8 -30 -8 -42 -5
-6 -28 6 37 -10 3 -29 1
51 11 -4 1 -25 28 15 -12
21 20 11 -29 17 21 -17 -15
44 -1 -43 -3 28 -9 6 7
-8 -1 -9 26 -17 33 15 -6
16 13 2 38 -35 11 14 -32
-20 25 24 4 -30 18 -25 32
3 -4 25 9 -5 -11 22 -37
15 -1 7 -18 19 0 -19 -13
26 -11 23 -5 15 26 -4 -47
-26 -1 -5 23 26 16 -31 -7
32 14 -7 6 -23 23 -39 29
16 -55 -2 -1 31 -16 -12 17
28 8 4 -51 7 -52 29 10
2 19 -23 14 -30 -26 8 -12
-26 29 17 5 10 16 47 8
12 -49 17 -31 9 8 24 -11
-6 -1 -14 -5 34 10 29 7
9 -17 4 -5 63 -17 -8 34
00000000: 2e00 0a2e 16d5 e6f6 e419 11fb 08dc fb20
00000010: 1d14 040a 1127 c214 2cfb e7f5 fbfc f8f5
00000020: f5f0 df00 0bfa f103 f715 0f0c 1400 12f2
00000030: 0014 fcd2 29e0 0cf6 13e6 161b 0223 0afd
00000040: 01e4 0d40 f7c8 fe19 0dd6 000d 0120 05d7
00000050: d2dc efea e902 2ed7 eb06 eee9 fa12 fae4
00000060: fd09 ef08 e2f8 d6fb fae4 0625 f603 e301
00000070: 330b fc01 e71c 0ff4 1514 0be3 1115 eff1
00000080: 2cff d5fd 1cf7 0607 f8ff f71a ef21 0ffa
00000090: 100d 0226 dd0b 0ee0 ec19 1804 e212 e720
000000a0: 03fc 1909 fbf5 16db 0fff 07ee 1300 edf3
000000b0: 1af5 17fb 0f1a fcd1 e6ff fb17 1a10 e1f9
000000c0: 200e f906 e917 d91d 10c9 feff 1ff0 f411
000000d0: 1c08 04cd 07cc 1d0a 0213 e90e e2e6 08f4
000000e0: e61d 1105 0a10 2f08 0ccf 11e1 0908 18f5
000000f0: faff f2fb 220a 1d07 09ef 04fb 3fef f822

sequential_1/dense_1/MatMul i1 [1000, 7]
-77 122 106 -94 127 -49 30 -127
-16 -94 -73 -41 -44 -70 -86 -77
-127 -13 -95 0 52 -12 -127 -92
-25 14 -58 59 -62 -118 -113 -127
9 -70 -55 -75 58 70 -89 -55
-34 -127 127 -63 25 -23 -113 0
21 127 -62 -83 -87 53 -52 -89
-125 -95 29 -100 -127 56 -94 -127
94 1 -69 -43 37 0 65 -127
73 -124 -70 16 -55 50 -73 -108
-127 52 -66 31 -11 106 -33 123
-70 127 -14 -10 -17 127 41 5
-52 -19 60 39 6 -27 -71 -127
26 -55 -20 23 127 49 69 -77
-83 -103 51 -6 -127 -71 64 22
-54 9 63 18 -2 -127 68 33
-24 -127 -62 13 -104 -124 35 49
-127 -127 1 -71 -78 59 -32 -68
-127 53 31 -127 -17 25 4 -42
1 57 -7 -41 52 127 -24 43
-4 11 64 -57 -42 -21 -127 -27
-36 56 -4 -24 -127 18 12 -29
44 -2 17 -54 -127 -11 -31 127
-73 72 37 -29 -102 -65 34 21
-16 0 -88 -127 38 -127 75 11
0 0 -25 -18 -91 116 32 127
-89 -114 -109 99 -127 1 5 65
-108 51 -103 -127 -22 -66 -51 43
83 -65 -44 -127 -3 28 25 -15
33 25 127 21 21 -117 -37 -40
-127 113 55 -102 -21 127 -65 -118
-88 36 -4 -68 25 -67 -78 -30
00000000: b37a 6aa2 7fcf 1e81 f0a2 b7d7 d4ba aab3
00000010: 81f3 a100 34f4 81a4 e70e c63b c28a 8f81
00000020: 09ba c9b5 3a46 a7c9 de81 7fc1 19e9 8f00
00000030: 157f c2ad a935 cca7 83a1 1d9c 8138 a281
00000040: 5e01 bbd5 2500 4181 4984 ba10 c932 b794
00000050: 8134 be1f f56a df7b ba7f f2f6 ef7f 2905
00000060: cced 3c27 06e5 b981 1ac9 ec17 7f31 45b3
00000070: ad99 33fa 81b9 4016 ca09 3f12 fe81 4421
00000080: e881 c20d 9884 2331 8181 01b9 b23b e0bc
00000090: 8135 1f81 ef19 04d6 0139 f9d7 347f e82b
000000a0: fc0b 40c7 d6eb 81e5 dc38 fce8 8112 0ce3
000000b0: 2cfe 11ca 81f5 e17f b748 25e3 9abf 2215
000000c0: f000 a881 2681 4b0b 0000 e7ee a574 207f
000000d0: a78e 9363 8101 0541 9433 9981 eabe cd2b
000000e0: 53bf d481 fd1c 19f1 2119 7f15 158b dbd8
000000f0: 8171 379a eb7f bf8a a824 fcbc 19bd b2e2
